…
, 0.9], gen_model='g_multivanilla', kernel_size=3, lr=0.0005, max_features=32, max_size=250, min_features=32, min_size=25, model_to_load='', noise_weight=0.1, num_blocks=5, num_critic=1, num_steps=2000, padding=0, penalty_weight=0.1, print_every=200, reconstruction_weight=10.0, results_dir='./results', root='images/balloons.png', save='2022-04-16_16-07-17', save_path='./results\\2022-04-16_16-07-17', scale_factor_init=0.75, seed=2316, step_size=2000, use_tb=False)
2022-04-16 16:07:22 - INFO - MultiVanilla(
  (curr): Vanilla(
    (features): Sequential(
      (0): BasicBlock(
        (conv): Conv2d(3, 32, kernel_size=(3, 3), stride=(1, 1))
        (batch_norm): BatchNorm2d(32, eps=1e-05, momentum=0.1, affine=True, track_running_stats=True)
        (lrelu): LeakyReLU(negative_slope=0.2, inplace=True)
      )
      (1): BasicBlock(
        (conv): Conv2d(32, 32, kernel_size=(3, 3), stride=(1, 1))
        (batch_norm): BatchNorm2d(32, eps=1e-05, momentum=0.1, affine=True, track_running_stats=True)
        (lrelu): LeakyReLU(negative_slope=0.2, inplace=True)
      )
      (2): BasicBlock(
        (conv): Conv2d(32, 32, kernel_size=(3, 3), stride=(1, 1))
        (batch_norm): BatchNorm2d(32, eps=1e-05, momentum=0.1, affine=True, track_running_stats=True)
        (lrelu): LeakyReLU(negative_slope=0.2, inplace=True)
      )
      (3): BasicBlock(
        (conv): Conv2d(32, 32, kernel_size=(3, 3), stride=(1, 1))
        (batch_norm): BatchNorm2d(32, eps=1e-05, momentum=0.1, affine=True, track_running_stats=True)
        (lrelu): LeakyReLU(negative_slope=0.2, inplace=True)
      )
    )
    (features_to_image): Sequential(
      (0): Conv2d(32, 3, kernel_size=(3, 3), stride=(1, 1))
      (1): Tanh()
    )
  )
  (prev): Module()
)
2022-04-16 16:07:22 - INFO - Vanilla(
  (features): Sequential(
    (0): BasicBlock(
      (conv): Conv2d(3, 32, kernel_size=(3, 3), stride=(1, 1))
      (batch_norm): BatchNorm2d(32, eps=1e-05, momentum=0.1, affine=True, track_running_stats=True)
      (lrelu): LeakyReLU(negative_slope=0.2, inplace=True)
    )
    (1): BasicBlock(
      (conv): Conv2d(32, 32, kernel_size=(3, 3), stride=(1, 1))
      (batch_norm): BatchNorm2d(32, eps=1e-05, momentum=0.1, affine=True, track_running_stats=True)
      (lrelu): LeakyReLU(negative_slope=0.2, inplace=True)
    )
    (2): BasicBlock(
      (conv): Conv2d(32, 32, kernel_size=(3, 3), stride=(1, 1))
      (batch_norm): BatchNorm2d(32, eps=1e-05, momentum=0.1, affine=True, track_running_stats=True)
      (lrelu): LeakyReLU(negative_slope=0.2, inplace=True)
    )
    (3): BasicBlock(
      (conv): Conv2d(32, 32, kernel_size=(3, 3), stride=(1, 1))
      (batch_norm): BatchNorm2d(32, eps=1e-05, momentum=0.1, affine=True, track_running_stats=True)
      (lrelu): LeakyReLU(negative_slope=0.2, inplace=True)
    )
  )
  (classifier): Conv2d(32, 1, kernel_size=(3, 3), stride=(1, 1))
)
2022-04-16 16:07:22 - INFO - Number of parameters in generator: 29763
2022-04-16 16:07:22 - INFO - Number of parameters in discriminator: 29185
2022-04-16 16:07:22 - INFO - 
Scale #1
2022-04-16 16:07:23 - INFO - Iteration 0, D: 0.005353, D_r: -0.002982, D_f: -0.021816, D_gp: 0.301513, G: 1.64311, G_recon: 0.15817, G_adv: 0.06141
2022-04-16 16:07:34 - INFO - Iteration 200, D: -1.063730, D_r: -0.891559, D_f: -0.690094, D_gp: 5.179239, G: 0.89520, G_recon: 0.01161, G_adv: 0.77914
…
